16-5.13 神经网络基础/model_20240520-173948.pth (torch, 409216 bytes, 4 tensors)

fc1.weight f4 [128, 784]
0.29234177 -0.1979098 -0.047315925 0.053734414 0.56640255 0.6135837 0.13823035 0.14951552
-0.002735626 -0.42979193 -0.9282342 -0.14001794 0.2884932 0.21556823 0.23112129 0.32821837
0.067059055 -0.65285575 -0.586275 -0.19451866 -0.16145708 0.100191705 0.3593951 0.49258956
0.31407344 0.13986534 -0.009093647 -0.097690076 0.060479682 -0.26156563 -0.0044495515 0.12022089
0.46002236 0.39411592 0.21339881 -0.26107022 -0.4898449 -0.75600404 -0.67185396 -0.29895198
0.11299005 0.114259064 0.13960837 0.15183082 -0.20075473 -0.71487874 -0.9732173 -0.64565223
-0.2138397 0.12104313 0.37237787 0.22554226 0.2670928 0.030961394 -0.109543435 -0.2879958
0.0013088168 0.020512244 0.14156486 0.20936003 0.39232993 0.0010121925 -0.26500675 -0.3951454
-0.1062593 -0.07112252 0.047508482 -0.024410592 -0.042920824 0.19789267 0.22774258 0.04112533
-0.035960596 0.069958165 -0.07156216 -0.074305154 -0.3197984 -0.36588797 -0.010514067 0.2874491
0.2527607 0.04892464 -0.042983893 -0.23539574 0.20235577 0.19673428 0.13602144 0.2694058
-0.016788622 -0.24546441 -0.024992501 0.19097896 0.24819338 0.027642699 -0.18222019 -0.13102387
0.045343034 0.15418983 0.1333219 0.093897276 -0.017676879 -0.09960655 -0.0908468 0.15247007
0.21363719 -0.02888154 -0.22504191 0.01724971 0.2605741 0.08565215 -0.11115426 0.20050162
0.15640958 0.21916492 0.27966127 0.28608796 -0.099432275 0.012798097 0.18850467 0.19305803
0.023169847 -0.17031254 -0.17084914 -0.08783422 -0.027210856 0.010960737 0.04382284 -0.03680974
-0.019914987 -0.090169646 -0.110287935 -0.038577665 0.11802719 0.2112575 -0.016397987 -0.10694713
0.11057051 0.22796918 0.22620937 0.11789661 -0.26549438 0.36172795 0.18824762 0.021111058
0.036758028 -0.030028312 0.13642347 0.066313595 -0.039417855 -0.121403895 -0.09902374 -0.073867604
-0.08635643 -0.11807619 -0.07935749 -0.15278853 -0.087042995 -0.185408 -0.13365325 -0.07219166
0.05140445 0.12353275 0.07978592 0.038309623 -0.0018016864 0.120135695 0.17971845 -0.056612615
0.18181771 0.21745314 -0.018408775 0.1613638 0.14465211 -0.07531669 0.015516031 0.037996892
0.016499117 -0.042409856 -0.047981214 -0.086114265 -0.04306284 -0.063790575 -0.07888552 -0.09721519
-0.050600227 -0.08077108 -0.079902634 -0.04829927 0.026927458 0.114378594 -0.015218122 0.07438917
0.22472997 -0.07176298 -0.21207309 -0.039131984 -0.07594306 -0.118025064 -0.03248547 0.2113324
0.1764463 -0.044164233 0.019509453 0.091768846 0.0010972149 -0.057340316 -0.053111132 -0.027412133
-0.05941077 -0.02700488 0.008342912 -0.0031662337 -0.013441893 -0.03502515 -0.0910535 0.00014048253
0.05291335 0.07160222 0.001076773 0.098459944 0.20581707 -0.061392535 -0.06353669 -0.25850362
-0.21450493 -0.0971982 0.16109732 0.22755058 0.18139458 0.05716009 0.08433155 0.1062509
0.010448356 0.04391868 -0.034075998 -0.017818423 0.022761913 -0.00073180045 -0.03364427 -0.057496835
-0.014936286 -0.041168183 -0.07267697 0.017248334 0.11490024 0.12081217 0.09556912 -0.005832695
0.05589391 0.082111806 0.099982455 -0.25579968 -0.0007414944 -0.0348295 0.09504366 0.20251083
00000000: d2ad 953e dea8 4abe 58ce 41bd 9e18 5c3d
00000010: c2ff 103f d213 1d3f 428c 0d3e 991a 193e
00000020: 3048 33bb b00d dcbe c2a0 6dbf dd60 0fbe
00000030: 61b5 933e ebbd 5c3e 0fab 6c3e 3d0c a83e
00000040: 4256 893d 8e21 27bf 1e16 16bf e62f 47be
00000050: 0155 25be 4f31 cd3d a202 b83e b334 fc3e
00000060: 3cce a03e dc38 0f3e 85fd 14bc bc11 c8bd
00000070: 8bb9 773d eeeb 85be 8bcd 91bb 5f36 f63d
00000080: 0d88 eb3e 90c9 c93e 3885 5a3e ffaa 85be
00000090: f3cc fabe 7b89 41bf 9ffe 2bbf 3c10 99be
000000a0: 5467 e73d a800 ea3d 7ff5 0e3e 8a79 1b3e
000000b0: a692 4dbe 4b02 37bf c524 79bf 7749 25bf
000000c0: cbf8 5abe 76e5 f73d 50a8 be3e 8df4 663e
000000d0: 63c0 883e c0a2 fd3c 4f58 e0bd 2f74 93be
000000e0: 9b8c ab3a 4b09 a83c 61f6 103e 7a62 563e
000000f0: 78df c83e 8bab 843a f7ae 87be 7f50 cabe
00000100: 7a9e d9bd afa8 91bd 4198 423d b9f8 c7bc
00000110: bfcd 2fbd 60a4 4a3e 5a35 693e 0973 283d
00000120: 6b4b 13bd 3a46 8f3d 2f8f 92bd 4d2d 98bd
00000130: 9ebc a3be ab55 bbbe 3143 2cbc 872c 933e
00000140: da69 813e 3465 483d e10f 30bd 950b 71be
00000150: 5a36 4f3e b674 493e 3449 0b3e 8fef 893e
00000160: 4b88 89bc 065b 7bbe 13bd ccbc fd8f 433e
00000170: 6826 7e3e f172 e23c ee97 3abe 1f2b 06be
00000180: 9eb9 393d f0e3 1d3e 8985 083e 374d c03d
00000190: 1acf 90bc 85fe cbbd e30d babd 1d21 1c3e
000001a0: b5c3 5a3e fb98 ecbc 6371 66be 444f 8d3c
000001b0: f869 853e 656a af3d d8a4 e3bd 4c50 4d3e
000001c0: d529 203e c56c 603e c32f 8f3e 1f7a 923e
000001d0: 26a3 cbbd 1caf 513c 5e07 413e 01b1 453e
000001e0: b1ce bd3c 6966 2ebe 14f3 2ebe 6de2 b3bd
000001f0: 4de9 debc aa94 333c 947f 333d cfc5 16bd
00000200: c124 a3bc ddaa b8bd a4de e1bd 9d03 1ebd
00000210: 3db8 f13d e353 583e 1255 86bc 1907 dbbd
00000220: cb72 e23d c170 693e 6ea3 673e c773 f13d
00000230: e1ee 87be 6834 b93e fcc3 403e 19f1 ac3c
00000240: 968f 163d effd f5bc 98b2 0b3e 6ccf 873d
00000250: 9e74 21bd 9ba2 f8bd f5cc cabd e647 97bd
00000260: a4db b0bd eed1 f1bd 2e86 a2bd 9974 1cbe
00000270: 9943 b2bd 98db 3dbe 66dc 08be 39d9 93bd
00000280: 798d 523d bdfe fc3d cd66 a33d 8dea 1c3d
00000290: 9026 ecba b409 f63d 1d08 383e a1e2 67bd
000002a0: 6c2e 3a3e 09ac 5e3e 00ce 96bc 8d3c 253e
000002b0: af1f 143e a33f 9abd f336 7e3c a1a2 1b3d
000002c0: 2829 873c f5b5 2dbd f387 44bd ad5c b0bd
000002d0: a962 30bd a2a4 82bd bb8e a1bd c218 c7bd
000002e0: 2f42 4fbd 4f6b a5bd fea3 a3bd 75d5 45bd
000002f0: f996 dc3c 533f ea3d 6e55 79bc 5959 983d
00000300: 9d1f 663e 78f8 92bd b029 59be dc48 20bd
00000310: 0988 9bbd 20b7 f1bd 7c0f 05bd 8567 583e
00000320: 57ae 343e 8ee5 34bd 4ad2 9f3c 4ef1 bb3d
00000330: 6cd0 8f3a aedd 6abd 0f8b 59bd 698f e0bc
00000340: b558 73bd 5739 ddbc b6b0 083c 9680 4fbb
00000350: 633b 5cbc 8876 0fbd 427a babd 7e4e 1339
00000360: abbb 583d 2fa4 923d 8222 8d3a 5ea5 c93d
00000370: b6c1 523e bd76 7bbd 861f 82bd 965a 84be
00000380: 2ea7 5bbe da0f c7bd b2f6 243e 0503 693e
00000390: 80bf 393e b320 6a3d 05b6 ac3d 129a d93d
000003a0: 952f 2b3c 13e4 333d 4693 0bbd f1f7 91bc
000003b0: 3177 ba3c 4cd6 3fba 93ce 09bd cd81 6bbd
000003c0: 53b7 74bc f89f 28bd aad7 94bd 614c 8d3c
000003d0: d150 eb3d 5f6c f73d beb9 c33d 3120 bfbb
000003e0: 03f1 643d 3c2a a83d 9ac3 cc3d 2df8 82be
000003f0: d960 42ba 61a9 0ebd 40a6 c23d 005f 4f3e

fc1.bias f4 [128]
0.43240836 -0.20480172 0.2970981 0.48946536 -0.19467191 0.44453546 -0.4214881 0.5497076
-0.06749079 0.06022855 0.17755587 -0.17419386 0.53942895 0.06475028 -0.115375236 0.36895177
0.15355307 0.31457496 0.016914625 0.11030079 0.34571204 0.48977 0.02825649 0.39378121
0.23777726 0.38092902 0.51597387 -0.09503967 0.23827052 0.07297112 0.42226267 0.023414008
-0.015556686 0.1619224 0.34550974 -0.09927231 0.54731697 -0.361934 -0.05129069 0.60631466
0.18714626 0.29489383 0.09776313 -0.014734628 0.64261603 0.3597491 0.119787075 0.58781016
0.47046152 0.025658833 -0.15757325 -0.07746156 0.34099147 0.48187152 0.5174232 0.41005886
0.11033586 -0.010577032 0.014411336 0.15820415 0.008138982 -0.0410138 0.011478157 -0.01074464
-0.4255743 0.28462315 -0.10574927 0.034704614 -0.055222794 0.19222356 -0.13158652 0.5448784
0.05136809 0.4784245 0.22852267 0.23642522 -0.010542567 0.025041193 0.2438258 0.30406594
0.4312995 0.17494781 0.10733621 -0.03682413 -0.17936228 -0.353581 -0.07388342 0.26028863
0.76747715 0.35690612 0.19801262 0.38596866 0.3453523 -0.07544224 -0.51656985 0.022061277
-0.2178632 -0.034296926 0.3910941 -0.26911518 0.18885264 0.021195544 0.13517112 0.45224705
0.19742675 0.012624579 -0.006074603 0.008578573 0.28737012 0.24410173 0.021584302 -0.05026585
-0.110973045 -0.067344815 0.44516602 0.20238242 0.07835704 -0.15670696 0.010781855 0.5949963
-0.2542089 -0.10836526 0.16687149 0.25583744 0.2552508 -0.03331699 -0.062752694 -0.34150732
00000000: a164 dd3e 8bb7 51be 3e1d 983e 349b fa3e
00000010: 1358 47be 279a e33e 4acd d7be a3b9 0c3f
00000020: 9c38 8abd 36b2 763d 35d1 353e e05f 32be
00000030: 0418 0a3f cb9b 843d da49 ecbd 3fe7 bc3e
00000040: 043d 1d3e f80f a13e 8a90 8a3c 61e5 e13d
00000050: 2b01 b13e 22c3 fa3e 287a e73c b19d c93e
00000060: e27b 733e 2109 c33e dd16 043f 29a4 c2bd
00000070: 30fd 733e e271 953d d032 d83e bcce bf3c
00000080: 78e1 7ebc fcce 253e a7e6 b03e 484f cbbd
00000090: f71c 0c3f 6a4f b9be 3016 52bd 7037 1b3f
000000a0: 45a3 3f3e 53fc 963e 0938 c83d 8269 71bc
000000b0: 7c82 243f 0931 b83e ed52 f53d ba7a 163f
000000c0: 55e0 f03e 7932 d23c e25a 21be 2ba4 9ebd
000000d0: 6f96 ae3e ddb7 f63e d975 043f 3cf3 d13e
000000e0: c4f7 e13d 4a4b 2dbc 861d 6c3c 4500 223e
000000f0: 5d59 053c 16fe 27bd e10e 3c3c 490a 30bc
00000100: e0e4 d9be 20ba 913e 1393 d8bd 6d26 0e3d
00000110: 4c31 62bd 41d6 443e 9ebe 06be 277d 0b3f
00000120: 5967 523d 0ef4 f43e d901 6a3e 7419 723e
00000130: bbba 2cbc 3023 cd3c 78ad 793e 88ae 9b3e
00000140: 4ad3 dc3e 8525 333e 16d3 db3d e6d4 16bd
00000150: bfaa 37be 9208 b5be 3150 97bd 8d44 853e
00000160: 6279 443f 66bc b63e d2c3 4a3e af9d c53e
00000170: 04d2 b03e 7681 9abd ec3d 04bf dab9 b43c
00000180: 8817 5fbe ef7a 0cbd 7c3d c83e 77c9 89be
00000190: 9662 413e 47a2 ad3c 4c6a 0a3e ed8c e73e
000001a0: 3d2a 4a3e 52d7 4e3c 770d c7bb 258d 0c3c
000001b0: 2d22 933e cef5 793e 90d1 b03c 90e3 4dbd
000001c0: d645 e3bd 14ec 89bd cdec e33e 563d 4f3e
000001d0: a879 a03d ca77 20be 61a6 303c ad51 183f
000001e0: ab27 82be 9bee ddbd 5ce0 2a3e 20fd 823e
000001f0: 3cb0 823e 6577 08bd 7c84 80bd 0cda aebe

fc2.weight f4 [10, 128]
-0.09251415 0.08904382 0.07037826 0.08325836 0.029924743 0.18913172 -0.06885745 0.23700105
-0.24709992 -0.37973297 -0.011499567 -0.117948845 0.11143989 0.009233131 -0.08362818 -0.49594122
-0.18588291 0.09887779 0.040420372 0.12411963 0.21494578 0.012356166 -0.07872205 -0.074185036
0.08842061 -0.42802796 0.08862634 -0.0028903151 -0.32186788 0.013592251 -0.3727167 -0.06287342
0.067014664 -0.18752392 -0.27444038 -0.074449964 0.0975213 0.09290687 0.070287526 -0.5630622
-0.32240078 0.021512687 0.060867306 -0.09203274 -0.0788863 0.09970641 0.031526025 0.14339504
0.04143393 0.25929132 -0.2089637 -0.04934896 -0.28426072 0.08690195 0.0226037 0.095362395
0.07417646 0.0636197 0.0021531482 -0.1792373 -0.07385902 0.047878396 -0.06704906 -0.046112638
-0.025191694 0.05246165 -0.059146527 0.060063522 -0.10505472 -0.29111862 0.09751374 0.10563535
-0.2929178 -0.22261752 0.09226564 -0.20844942 -0.033266664 -0.07291703 -0.041837484 0.18461315
-0.107022226 0.027211517 0.13304321 -0.0026192244 0.07905664 -0.017615937 0.036621634 0.20393276
-0.07812054 -0.0130313 0.022041833 0.11539572 0.028322076 0.11155656 0.026049325 -0.029956667
-0.119965985 0.05522874 0.010335522 0.07624342 -0.073252276 -0.056538373 -0.32347885 0.08249442
0.38225326 -0.059983056 0.0042876126 -0.07379948 -0.061236016 0.10494805 -0.046046685 0.0422431
-0.027533691 -0.23535968 0.104534455 0.044149213 -0.35800573 -0.0046102325 0.047591425 -0.51827216
0.08964793 0.043641534 0.10706449 -0.18904448 0.009575731 0.03688194 -0.30086967 -0.025566204
-0.230468 0.088676 0.038185176 -0.6023589 -0.37818038 -0.22057542 0.14912018 -0.37272373
-0.065846935 -0.028717773 -0.32223952 0.13381767 -0.5123579 0.30746564 -0.20446883 0.12204612
-0.28483596 0.12462462 0.21124387 -0.079307474 -0.1850353 -0.5938958 -0.20899947 0.17758654
0.09062781 -0.5609199 0.16987117 -0.009781903 0.21502389 -0.24977693 -1.0268903 0.024241908
-0.42243665 -0.1353779 0.2780477 0.0896763 0.017053723 -0.09669413 -0.07491136 -1.6455559
-0.5408272 0.18216798 -0.1733251 -0.23526314 -0.26610395 -0.178709 0.30138376 0.05640644
-0.8732605 0.17995039 0.15898229 0.2814485 0.1145077 -0.070856266 -0.21601339 0.12865432
-0.15404153 0.019282056 0.061041113 0.5730885 -0.016512169 -0.07837255 -0.031179626 -0.067597374
0.22088474 0.35101023 0.13951647 -0.22431579 -0.16533288 0.5090603 -0.5231071 -0.4361191
-0.1270564 -0.8918264 -0.24161558 -0.19937536 0.07392416 0.050749965 0.113517195 0.0323394
-0.32421082 -0.086528175 0.102050014 0.13088599 0.026487408 0.41364563 0.13631174 -0.1803979
-0.44088992 -0.003970468 0.1572803 0.006095994 -0.5479263 -0.09495154 0.06543291 -0.05202744
2.6658068e-05 -0.07118977 0.397953 0.14098847 -0.27949846 0.0010264344 -0.23006561 -0.30551404
0.017826427 -0.35202023 -0.07036619 -0.00072107336 -0.43287206 -0.29898357 0.2246502 -0.017164499
0.055114195 -0.20490669 -0.3372836 -0.20518936 -0.39522842 -0.34157082 0.05124967 -0.09487714
0.388329 0.10675671 0.08012196 -0.047182236 0.35932365 0.120327756 0.090614714 -0.053929783
00000000: 0f78 bdbd 9b5c b63d 7a22 903d 5c83 aa3d
00000010: bc24 f53c bfab 413e 2205 8dbd 67b0 723e
00000020: c307 7dbe 5c6c c2be ae68 3cbc 2a8f f1bd
00000030: 993a e43d 8f46 173c 4045 abbd 02ec fdbe
00000040: 1758 3ebe 7080 ca3d d58f 253d 6f32 fe3d
00000050: bf1a 5c3e 8471 4a3c 0739 a1bd 53ee 97bd
00000060: dd15 b53d 7b26 dbbe ba81 b53d 716b 3dbb
00000070: decb a4be 08b2 5e3c b9d4 bebe c8c3 80bd
00000080: fc3e 893d 4506 40be 7383 8cbe 3979 98bd
00000090: 3fb9 c73d f545 be3d e8f2 8f3d d824 10bf
000000a0: b711 a5be 603b b03c ff4f 793d a97b bcbd
000000b0: 248f a1bd e032 cc3d 6f21 013d 26d6 123e
000000c0: a0b6 293d d5c1 843e 95fa 55be 2322 4abd
000000d0: 9f8a 91be a6f9 b13d 652b b93c 5c4d c33d
000000e0: d4e9 973d 0c4b 823d d51b 0d3b fc89 37be
000000f0: 6643 97bd 231c 443d 0451 89bd 9be0 3cbd
00000100: d05e cebc 07e2 563d a143 72bd 2b05 763d
00000110: ee26 d7bd 800d 95be 49b5 c73d 5957 d83d
00000120: 52f9 95be d9f5 63be c5f5 bc3d c473 55be
00000130: a042 08bd 8655 95bd c85d 2bbd 3b0b 3d3e
00000140: 782e dbbd b0ea de3c 7b3c 083e 4ba7 2bbb
00000150: 73e8 a13d 4c4f 90bc 9100 163d c0d3 503e
00000160: a9fd 9fbd 3c81 55bc 1391 b43c 9754 ec3d
00000170: b303 e83c c477 e43d 6565 d53c af67 f5bc
00000180: bab0 f5bd 8837 623d 5256 293c 8325 9c3d
00000190: 4a05 96bd c894 67bd 059f a5be d6f2 a83d
000001a0: b3b6 c33e cbb0 75bd 1a7f 8c3b 2f24 97bd
000001b0: 9ed2 7abd 01ef d63d 739b 3cbd 1a07 2d3d
000001c0: 568e e1bc 2102 71be 2916 d63d ced5 343d
000001d0: 874c b7be 6f11 97bb 3aef 423d 7cad 04bf
000001e0: 5599 b73d 77c1 323d a144 db3d e094 41be
000001f0: 87e3 1c3c 8411 173d 970b 9abe 3770 d1bc
00000200: ceff 6bbe c39b b53d 0f68 1c3d 3134 1abf
00000210: dca0 c1be 86de 61be f6b2 183e a5d5 bebe
00000220: c2da 86bd 8941 ebbc 94fc a4be 8007 093e
00000230: e329 03bf 236c 9d3e 4760 51be 51f3 f93d
00000240: 05d6 91be 313b ff3d 5050 583e f56b a2bd
00000250: e579 3dbe 8e09 18bf f503 56be 3fd9 353e
00000260: 139b b93d 7298 0fbf b5f2 2d3e 4644 20bc
00000270: 392f 5c3e 86c5 7fbe 2471 83bf f796 c63c
00000280: 9e49 d8be 81a0 0abe 455c 8e3e 35a8 b73d
00000290: 40b4 8b3c 9207 c6bd 216b 99bd 93a1 d2bf
000002a0: a773 0abf 3e8a 3a3e 237c 31be d2e8 70be
000002b0: c73e 88be 7eff 36be f94e 9a3e 700a 673d
000002c0: 008e 5fbf ea44 383e 41cc 223e 051a 903e
000002d0: 0383 ea3d 171d 91bd 9d32 5dbe f5bd 033e
000002e0: 10bd 1dbe 67f5 9d3c 3f06 7a3d eeb5 123f
000002f0: 8744 87bc ca81 a0bd 6a6c ffbc 7e70 8abd
00000300: 9c2f 623e 9db7 b33e 68dd 0e3e 0ab3 65be
00000310: 064d 29be c751 023f 59ea 05bf 014b dfbe
00000320: 131b 02be bc4e 64bf 136a 77be 0e29 4cbe
00000330: 8d65 973d 32df 4f3d b47b e83d 5276 043d
00000340: f6fe a5be af35 b1bd 99ff d03d fa06 063e
00000350: 1ffc d83c 5cc9 d33e 4e95 0b3e 3aba 38be
00000360: 53bc e1be b31a 82bb 160e 213e e7c0 c73b
00000370: e644 0cbf f475 c2bd b101 863d ba1a 55bd
00000380: c49f df37 f1cb 91bd 7fc0 cb3e 485f 103e
00000390: 6c1a 8fbe 6c89 863a 5296 6bbe 566c 9cbe
000003a0: ba08 923c ff3b b4be 261c 90bd 6a06 3dba
000003b0: 68a1 ddbe 6014 99be b40a 663e 909c 8cbc
000003c0: 6cbf 613d 0fd3 51be 70b0 acbe 291d 52be
000003d0: 615b cabe 5fe2 aebe 2deb 513d f24e c2bd
000003e0: 0fd3 c63e 43a3 da3d fb16 a43d 2942 41bd
000003f0: 45f9 b73e 666e f63d 3594 b93d 7ae5 5cbd

fc2.bias f4 [10]
0.019002555 -0.24753074 0.13099666 0.2272517 -0.29989162 0.118106835 0.19380306 0.22026527
-0.15012777 -0.35143486
00000000: 3fab 9b3c b378 7dbe fd23 063e abb4 683e
00000010: 658b 99be ffe1 f13d 4f74 463e 388d 613e
00000020: 18bb 19be 45ef b3be
