16-5.13 神经网络基础/model.pth (torch, 408896 bytes, 4 tensors)

fc1.weight f4 [128, 784]
000000 2f e7 c2 3d 1a 4b f9 bc 13 de b3 bd d3 9e ab bc
       0.09516751 -0.030431319 -0.08782592 -0.020949757
000010 61 7b e8 3d 73 69 39 3e 4f 1e ed 3d d4 2d 89 3c
       0.11351658 0.18106632 0.115780465 0.016745485
000020 e8 b5 cc 3b 90 18 c3 bd f5 ee ad be f6 09 45 be
       0.006247271 -0.09526169 -0.33971372 -0.19242081
000030 91 1e 19 3e 21 69 44 3e 41 83 36 3e c9 ac 53 3e
       0.14953066 0.19180728 0.17823507 0.20671381
000040 f7 8c 6e bd 32 b8 b8 be 02 af 68 be f5 8f a7 bd
       -0.058239903 -0.3607803 -0.2272301 -0.081817545
000050 4b 7d ac bd f5 7d af 3d 57 56 1c 3e 91 d7 b2 3d
       -0.08422335 0.08568946 0.15267311 0.08732522
000060 b4 24 a9 3d 59 28 3c 3d a5 b2 b2 3b 73 b9 1f bd
       0.08258954 0.045936916 0.005453425 -0.038995218
000070 a4 0d 97 bc b4 66 f8 bc bb 2e 26 bd 1f 74 86 3d
       -0.018439122 -0.03032241 -0.04057191 0.06565117
000080 37 6c 0d 3e 96 e5 20 3e 3a b4 c8 3d d4 92 51 bd
       0.13810812 0.1571258 0.098000005 -0.051165417
000090 9b 3d 01 be bc ce a1 be 1d 10 ae be 0a fd 07 be
       -0.12621157 -0.31603038 -0.33996668 -0.1328012
0000a0 4c 49 08 3d 38 96 30 3c d7 d9 78 3c 57 2e 1a 3d
       0.033273026 0.010778002 0.015188656 0.03764185
0000b0 f6 c3 da bd c2 f8 b1 be 50 59 ad be 5c 6e 49 be
       -0.10681908 -0.347601 -0.33857203 -0.19671005
0000c0 6c ed 16 bd 30 35 40 3d e2 df fc 3d b8 0b d5 3d
       -0.036847517 0.046925724 0.1234739 0.10402626
0000d0 2b ca 43 3d 0a 0b 1e 3d f8 42 34 3d 7e 19 c6 bd
       0.047800224 0.038584746 0.04400918 -0.09672831
0000e0 9f 96 26 bb 8d b5 03 3d 1d 3b eb 3c 18 44 7d 3d
       -0.0025419367 0.032155562 0.02871471 0.061832517
0000f0 70 60 f8 3d 4a 80 74 3d df 28 ed bc 4a 39 15 be
       0.12127769 0.05969266 -0.028950153 -0.14572635
000100 90 78 95 bd aa 72 e0 bd e8 49 97 bc c9 52 aa 38
       -0.07298386 -0.109593704 -0.018467858 8.1216516e-05
000110 5c a9 86 bb d2 d2 65 3d 02 e7 ee 3c 56 bc c9 bc
       -0.0041095447 0.056109257 0.029162887 -0.024625938
000120 b5 a5 39 bd 3f 9a c2 bb 75 9e 88 bd 1d ad 6e bd
       -0.045324046 -0.0059387977 -0.06670848 -0.058270562
000130 26 31 15 be 44 7d 9d bd db 7b 4a 3d e4 87 bc 3d
       -0.1456953 -0.07689908 0.049434524 0.092056066
000140 a1 ff c0 3d 74 48 09 3d e9 ac 84 bc 51 b5 03 bd
       0.09423757 0.033516362 -0.016195731 -0.03215534
000150 50 e9 98 3d a5 41 8d 3d 34 ac f9 3d 1c 2d d3 3d
       0.07466376 0.06897286 0.12191048 0.10311338
000160 fe 48 38 bb 15 d9 67 bd 4d 89 cc ba 65 14 c0 3d
       -0.0028119679 -0.05660351 -0.0015604884 0.0937889
000170 ff 3e c1 3d 95 49 9e 3b 30 a7 a9 bd 49 42 40 bd
       0.09435844 0.004830549 -0.082838416 -0.046938214
000180 6b 00 6a bb 59 e6 83 3d 35 ea b1 3c 68 06 c5 3c
       -0.0035705816 0.0644042 0.021718124 0.024050906
000190 22 28 fb bc 07 05 4e bd 27 fa 62 bd 69 0d 4d 3d
       -0.030658785 -0.050297763 -0.055414345 0.050061617
0001a0 35 1a af 3d 7a 70 43 3d 4d a3 47 bd e7 5e 2f 3d
       0.085499205 0.047714688 -0.04873972 0.042815115
0001b0 db f4 9a 3d 8a fc d6 3d fa c1 94 bb 1f f9 e4 3c
       0.07566234 0.10497387 -0.0045397254 0.027950821
0001c0 21 0b 90 3d d0 5d 07 3e b6 e3 04 3e f7 5d 19 3e
       0.07033373 0.1321938 0.1297749 0.14977251
0001d0 0b 75 44 bd 94 dd d2 bc ab 05 15 3d fb 2d 22 3c
       -0.047963183 -0.025740422 0.03638236 0.009898658
0001e0 15 e4 0e bd ec 72 c5 bd a2 1a ad bd ea 14 2f bd
       -0.034885485 -0.0964106 -0.084523454 -0.042744555
0001f0 ee 0a 1d bd 9d 96 e3 bc 13 a8 65 bc 38 90 22 bd
       -0.0383405 -0.027781779 -0.014017123 -0.03968832
000200 93 5c b4 bc 4e 09 04 bd 8f ca 51 bd 37 cf 54 bd
       -0.0220168 -0.032235436 -0.051218566 -0.051955428
000210 9e 89 04 bd 55 17 aa 3d ba ca 14 3b 79 57 5a bd
       -0.032357804 0.083052315 0.0022703842 -0.053306077
000220 62 ec 44 3c 85 b0 bb 3d 04 57 d4 3d 5b a2 d0 3c
       0.012019249 0.09164528 0.103681594 0.025468042
000230 ea 01 82 3d cd 24 40 3e 90 e2 fa 3d 72 83 1b 3c
       0.06348021 0.18764038 0.122502446 0.009491788
000240 f4 76 0b bd cf e2 8c bd a1 ef d0 bc cc 8d f9 bc
       -0.03404899 -0.06879198 -0.025504889 -0.030463122
000250 4a 2d 32 bd e7 59 28 bd ca 8a 82 bd a2 cb 31 bd
       -0.043500222 -0.041101363 -0.06374128 -0.04340709
000260 80 62 0a bd 32 d4 a2 bd 57 73 c5 bc f0 c3 c4 bd
       -0.033785343 -0.07950629 -0.02410285 -0.096076846
000270 ab 8c 61 bd 54 07 9d bd 44 aa a8 bd e8 91 36 bd
       -0.055065792 -0.07667413 -0.082356006 -0.04457274
000280 0e ed ca 3a 6e e3 13 bc 88 0f 7d bb b9 ac 0d bd
       0.0015482025 -0.009026391 -0.0038613994 -0.03458855
000290 a8 08 ba bc 28 10 cf 3d 87 df b1 3d 84 27 82 bd
       -0.022709206 0.101105034 0.086852126 -0.06355193
0002a0 60 47 be 3d e6 00 0f 3e e6 6b a1 3d 41 26 b8 3d
       0.092909575 0.13965186 0.07881908 0.08991671
0002b0 57 01 a9 bc d3 be a1 bd d0 fc 3d bd e8 14 ef bc
       -0.020630522 -0.07897725 -0.04638368 -0.029184774
0002c0 de 6a 63 bc 62 70 dc bc ea 0e 29 bd a4 9d 1f bd
       -0.01388046 -0.026909057 -0.04127399 -0.038968697
0002d0 50 ef 25 bd e4 34 34 bc 32 7a 2f bd 03 ff 83 bd
       -0.04051143 -0.010998938 -0.042841144 -0.06445124
0002e0 08 db ab 3b 73 d7 59 bd f9 46 1f bd 56 b2 72 bc
       0.0052446164 -0.053183984 -0.038886044 -0.014813026
0002f0 7b 63 41 bc 07 dd 3a bc 69 de 3b bd 64 2d 65 3b
       -0.011803503 -0.011405236 -0.045866404 0.0034969682
000300 42 93 72 3d af 57 89 3d a5 d1 94 3b 4e b7 33 3c
       0.059222467 0.067061774 0.004541593 0.010968996
000310 49 b8 b1 3d 80 7b 80 3d 42 2d 6f 3d 5b ee 97 3d
       0.08677728 0.06273556 0.05839277 0.074185096
000320 cd 46 05 bd 17 80 73 bd 1b 94 34 bd ce 51 21 bd
       -0.032538224 -0.059448328 -0.044086557 -0.039384656
000330 7c b4 c2 bc 3c 07 6a bd 9a ce 20 bb 1e f1 21 bc
       -0.023767702 -0.057135805 -0.0024537207 -0.009884147
000340 fa 96 d1 bc f2 6c 78 3b 9e ac 37 bc 58 9e 3b 3b
       -0.025584687 0.0037906733 -0.011210589 0.0028628316
000350 18 27 f5 bc b9 76 7c bd 09 1f 2a bd d7 0f c5 bc
       -0.029925868 -0.06163666 -0.041533504 -0.024055405
000360 ae 74 6b ba d4 1b 3a 39 e0 70 61 bd e2 66 1e bd
       -0.0008981925 0.00017748709 -0.055039287 -0.038672335
000370 b2 46 23 3d f4 ef c7 bc 54 e2 1d 3d b2 77 a8 3d
       0.039862342 -0.02440641 0.03854592 0.08225955
000380 97 83 ae 3d 10 e8 b4 3d 77 65 d3 3d df 92 64 3d
       0.085211925 0.08833325 0.10322087 0.05580413
000390 1a 06 50 bd 32 bc c4 bc 4b 7c 22 bd ef 40 16 3b
       -0.05078707 -0.02401552 -0.039669316 0.0022926887
0003a0 f0 c4 af bb b1 40 b5 3b dc 0f 5d bb 11 63 c9 3b
       -0.005364053 0.0055313935 -0.0033731377 0.006145843
0003b0 15 75 a5 3c 5e bb ef 3b 96 c1 86 bc 49 4a 18 bd
       0.02019743 0.007316037 -0.01644973 -0.03718022
0003c0 91 15 76 bc d0 85 2c bd f4 1a 8f bd b6 17 2d bc
       -0.01501979 -0.0421198 -0.06987563 -0.010564735
0003d0 cc 4e f3 3c 40 ab 25 3d cd 53 b9 3c 71 e8 f8 bc
       0.02970066 0.04044652 0.022622967 -0.030384274
0003e0 af ee 8a bc a1 48 cd 3a a5 79 d6 3d 08 76 20 3e
       -0.016959516 0.0015661904 0.104724206 0.15670025
0003f0 51 06 05 3e 44 2b 09 3e 6a dd b3 3d 34 7d 58 3d
       0.12990691 0.13395411 0.08782466 0.052853778

fc1.bias f4 [128]
000000 9e 6d 86 3e 5a fe bf bd d0 3d c6 3d 81 11 a4 3e
       0.26255506 -0.093746856 0.096797585 0.32044604
000010 01 a5 5f bd ce e8 92 3e 0a 4f 9c be 77 75 8c 3e
       -0.05460072 0.2869324 -0.30529052 0.2743337
000020 fb 2e 50 be f3 50 8a 3d 68 94 6c 3d 7a 6c 66 be
       -0.20330422 0.06753721 0.05775872 -0.22502318
000030 8d 7f ca 3e 3d 4a 0d bd 93 41 40 be ff 76 09 3e
       0.3955044 -0.034494627 -0.18775015 0.134243
000040 83 3d b7 3d 4a 73 cf 3d 4e 1d ce 3c e2 98 3c 3e
       0.08947279 0.101294115 0.025160458 0.18417695
000050 a9 fe 21 3e dd 38 d1 3e 7f 6c 23 bd f8 ef 03 3e
       0.15819801 0.40863696 -0.03989839 0.1288451
000060 7b fa 4c 3d 85 cb 74 3e 03 95 f6 3d 7e f2 80 bd
       0.050043564 0.23905762 0.120401405 -0.06296252
000070 99 a4 52 3d 62 98 b8 3b a9 4c b6 3e bc ce bf 3c
       0.051426504 0.0056334 0.35605362 0.023414008
000080 c6 4b e0 bc a1 06 1a bd fb ed 8e 3c a7 fc 00 be
       -0.027379882 -0.037603978 0.017447462 -0.12596379
000090 ab a8 ae 3d ec 17 54 be c7 1c b0 bd 8e 52 b5 3e
       0.085282646 -0.2071225 -0.08599239 0.35414547
0000a0 43 21 f9 3d 09 28 2a 3e b9 6b a4 3d a7 ce d8 3c
       0.12164547 0.16616835 0.08028359 0.026465727
0000b0 cf 7f 97 3e 8f 11 81 3e dd 97 0d 3d d1 fa 1a 3e
       0.29589698 0.2520871 0.034568656 0.15134741
0000c0 55 0c 7b bc a6 bd 9e 3d 83 75 dc bd 7c fa 0d bc
       -0.015322764 0.07751016 -0.10764601 -0.008665677
0000d0 24 43 22 3e 01 15 95 3e c8 b4 a0 3e f3 fd 3c 3e
       0.15845925 0.29117587 0.31387925 0.18456249
0000e0 9c 76 be bc 4a 4b 2d bc 86 1d 6c 3c cd 6b 57 3e
       -0.023249917 -0.010577032 0.014411336 0.21037216
0000f0 5d 59 05 3c 16 fe 27 bd e1 0e 3c 3c 49 0a 30 bc
       0.008138982 -0.0410138 0.011478157 -0.01074464
000100 1c 0e 67 be bb 0e 60 3e c5 0b f5 bc 01 94 06 3e
       -0.22563976 0.21880619 -0.029912839 0.13142397
000110 28 7f 9e bd 47 a1 13 bd e8 28 53 be 54 fd 2b 3e
       -0.07739097 -0.036042478 -0.20621073 0.16795856
000120 4d c0 62 3d 9a e4 9e 3e 44 3a 09 3e 75 f1 f0 3d
       0.055359174 0.31033784 0.13401133 0.11764804
000130 bb ba 2c bc 30 23 cd 3c cf c3 ba 3d 14 20 1d 3e
       -0.010542567 0.025041193 0.09119379 0.15344268
000140 bc 2e 70 3e 44 f6 a7 3d e9 c2 bf 3d f5 0a c1 bc
       0.23455328 0.08201268 0.09363348 -0.023564795
000150 94 24 fd bd 03 be 01 be 6f 04 d8 bd 3e d1 3c 3e
       -0.12360492 -0.1267014 -0.10547721 0.18439195
000160 8b 52 d9 3e fa 12 c2 3d 4a d3 82 3e 14 47 3c 3d
       0.42445788 0.09476276 0.25551826 0.045966223
000170 9a 3a 59 3e 80 e6 62 bd f2 6c 8e be da b9 b4 3c
       0.21213761 -0.055395603 -0.27817494 0.022061277
000180 cd 9e f8 bd ef 7a 0c bd 61 3a 1f 3e c8 55 49 be
       -0.12139664 -0.034296926 0.15549614 -0.19661629
000190 14 70 c7 3d 47 a2 ad 3c 4a a2 07 3e d4 3c 74 3e
       0.09738174 0.021195544 0.13245502 0.23851329
0001a0 cc f2 03 bd db 24 31 3d 77 0d c7 bb 25 8d 0c 3c
       -0.03221397 0.04324804 -0.006074603 0.008578573
0001b0 7a ee 6f 3d 79 62 37 3e 66 c8 cb bd bc 3c 48 3d
       0.05857704 0.17908658 -0.09950332 0.048886046
0001c0 21 b7 1a be d1 76 da bd 85 5b 93 3e af 8f 83 3d
       -0.1510892 -0.10667194 0.2878076 0.0642389
0001d0 2f 24 02 be 26 7f 12 be f6 b6 b9 3d 57 8b 7c 3e
       -0.12709115 -0.14306316 0.090681 0.24662529
0001e0 14 35 2d be db 6b da bd 63 c3 d6 bb 10 5f 33 3d
       -0.16914779 -0.10665103 -0.0065540536 0.04379183
0001f0 f5 68 80 3d 3c 34 7e bd f7 ea 56 bd a2 2d 32 be
       0.06270019 -0.062061533 -0.052470174 -0.1740022

fc2.weight f4 [10, 128]
000000 fa 2c 0d bd 7d 7f bd 3d 57 ca da 3d c3 c8 57 3d
       -0.03446672 0.09252832 0.106831245 0.052681696
000010 ff 34 b2 3c e8 d7 bd 3d 37 b1 59 bd 5e bb 87 3d
       0.021753786 0.092696965 -0.05314752 0.06627534
000020 f2 82 ee bd 0c 77 79 be 18 72 95 bd 41 db 02 be
       -0.116460696 -0.24361819 -0.07297152 -0.12778951
000030 11 b9 74 3d c6 82 51 3d 9d 0d 5a bd 27 fd 6a bc
       0.059746806 0.051150106 -0.05323564 -0.014342583
000040 2c 9d f0 bd ee bc c8 3d 2c 0a 81 3d 13 5c de 3d
       -0.11748728 0.098016605 0.06300768 0.108574055
000050 26 67 f6 3d 61 74 0f be e8 f9 69 bd d8 22 67 bd
       0.12031393 -0.14009239 -0.057123095 -0.056429714
000060 a0 9a a6 3d 30 74 eb bd e4 f5 83 3a c2 93 36 bd
       0.08134961 -0.114967704 0.0010067788 -0.044574507
000070 a5 74 35 be cb 37 c4 bc 58 bc 6a be c8 c3 80 bd
       -0.17720278 -0.023952385 -0.2292341 -0.06287342
000080 f3 d9 ad 3d 00 45 09 be 6a cd 75 bd f0 31 c9 bd
       0.08488836 -0.13405228 -0.06001035 -0.09823978
000090 25 b9 85 3d b1 46 d5 3d d6 e6 a6 3d ac 2c 96 be
       0.06529454 0.10413874 0.08149497 -0.29330957
0000a0 5f e4 e4 bd ab 64 b9 3c a5 35 93 3d d0 39 88 bd
       -0.11176371 0.02263101 0.07187966 -0.06651652
0000b0 2c 2d f7 bc ee 04 b7 3d b3 34 cd bc 49 d7 87 3d
       -0.030172907 0.08936487 -0.025049543 0.06632859
0000c0 a0 9c 83 bd 87 93 16 3e d2 8a 1c be 7d f7 85 bd
       -0.06426358 0.14704715 -0.15287331 -0.06541345
0000d0 28 3d 25 be 7b e0 ab 3d bc 42 31 3c e8 32 62 3d
       -0.1613661 0.083924256 0.010819133 0.05522433
0000e0 6a c6 55 3d 0c 4b 82 3d d5 1b 0d 3b 81 92 80 bd
       0.052191176 0.0636197 0.0021531482 -0.062779434
0000f0 66 43 97 bd 23 1c 44 3d 04 51 89 bd 9b e0 3c bd
       -0.07385902 0.047878396 -0.06704906 -0.046112638
000100 aa f8 62 bd b4 fa 1d bc 95 96 9c bd 9d ac b5 3d
       -0.055412926 -0.009642292 -0.07645909 0.08870814
000110 ab f1 03 be 60 82 49 be 68 6b 60 ba 61 f8 c8 3d
       -0.12885158 -0.1967864 -0.00085609267 0.098129995
000120 44 ba 0c be 28 1e f4 bd 8e e8 b3 bb 71 ff b5 bd
       -0.1374293 -0.11919814 -0.005490369 -0.08886612
000130 a0 42 08 bd 86 55 95 bd 13 7d 81 bd ca 24 ca 3d
       -0.033266664 -0.07291703 -0.06322684 0.09870298
000140 34 06 b2 bd 59 7d d0 bc b8 e5 b2 3d de d0 e5 3b
       -0.086925894 -0.025450395 0.087352216 0.0070134243
000150 f0 d1 0c 3d 05 b8 bc bd e3 96 9e 3c bf bb ee 3d
       0.0343799 -0.092147864 0.019359058 0.116569035
000160 77 42 0e be 94 63 5c bd f0 a5 19 3b 97 c6 d7 3d
       -0.13892542 -0.053805903 0.0023444854 0.10535925
000170 be 53 8d 3b 02 91 ca 3d a9 28 4a 3c af 67 f5 bc
       0.0043129614 0.09890939 0.012338796 -0.029956667
000180 46 0a 94 bd 88 37 62 3d 93 10 22 bd da 25 97 3d
       -0.07228522 0.05522874 -0.039566588 0.073802665
000190 6e 43 ef bd c8 94 67 bd 2e 4e e5 bd 6c 55 5f 3a
       -0.11682783 -0.056538373 -0.11196552 0.0008519504
0001a0 11 76 e7 3d 52 b4 b4 bd 1a 7f 8c 3b 2f 24 97 bd
       0.11301816 -0.08823456 0.0042876126 -0.07379948
0001b0 9f 68 1f bd c5 b9 76 3d 21 67 0b bd c2 08 26 b9
       -0.038918134 0.060235757 -0.0340339 -0.00015834256
0001c0 30 6a 37 3d a3 b9 94 bd 4a 57 8b 3d aa a3 09 3d
       0.044779003 -0.0726197 0.068037584 0.033603348
0001d0 b5 25 e4 bd dc 7a 9c bc 34 33 99 3d 99 e2 a2 be
       -0.111400045 -0.019101553 0.07480469 -0.31813505
0001e0 7f 6c af 3c 2b d2 62 3d 97 da ae 3d 21 2b ea bd
       0.02141404 0.055376213 0.085377865 -0.114340074
0001f0 d0 66 a2 3d 93 a0 29 3c 53 5b 56 be 64 32 92 bd
       0.07929766 0.010353225 -0.20933275 -0.071385175
000200 86 0a 99 bd a2 0a 27 bc a4 96 3f 3d 75 be 68 be
       -0.0747271 -0.010195406 0.04677452 -0.22728904
000210 b9 38 0c be 3b b3 55 be 95 5f 72 3d 74 65 48 be
       -0.13693513 -0.20869152 0.059173185 -0.19569951
000220 a2 19 bd bc c8 4b 63 bc f6 de 05 be 81 e0 4b 3d
       -0.023083512 -0.013873048 -0.13073334 0.04977465
000230 6f c0 50 be 97 ad e4 3d 9b 19 32 be de c9 84 bd
       -0.20385908 0.11165922 -0.1739258 -0.064838156
000240 87 75 2d be e0 e8 f5 3d 91 85 7d 3d a1 7a 3a bd
       -0.16939364 0.12007308 0.061894957 -0.045527104
000250 08 f9 fc bc 97 de a1 be a9 81 1d be ca d4 83 3d
       -0.030880466 -0.31615135 -0.15381493 0.06437071
000260 de ef 10 3d f8 78 5c be 2b b6 01 3e 4a eb 2f bd
       0.035385005 -0.21530521 0.12667148 -0.042949
000270 c5 52 49 3e b5 ce 13 be d3 e2 bd be f7 96 c6 3c
       0.1966048 -0.14434321 -0.37087116 0.024241908
000280 e4 08 4a be 82 92 c8 bd 02 b9 bb 3c 47 3f d5 3d
       -0.19729954 -0.09793569 0.022915367 0.1041246
000290 30 d9 ce 39 53 21 4b bd 5c f3 4e bd 43 60 c6 be
       0.000394532 -0.049592327 -0.050525054 -0.38745317
0002a0 1a 41 73 be 85 7d a7 3d c0 2d 1b be cd 72 9a bd
       -0.23755303 0.08178238 -0.15154171 -0.07541428
0002b0 8e 50 01 be 77 a1 0b be db 3b 37 3e 00 70 11 3e
       -0.12628385 -0.13635813 0.17893927 0.14202881
0002c0 af a2 0a bd 48 76 04 3e 56 e4 31 3e 7d 1b 08 3e
       -0.033846553 0.12935746 0.1737226 0.13291736
0002d0 d7 e7 c3 3d 55 d7 a7 bd 6f 9c 57 be 5b 8b 80 3d
       0.09565704 -0.08195368 -0.21055768 0.0627658
0002e0 a7 49 ac bd 67 f5 9d 3c 3f 06 7a 3d 4b a5 21 3e
       -0.084124856 0.019282056 0.061041113 0.1578571
0002f0 87 44 87 bc ca 81 a0 bd 6a 6c ff bc 7e 70 8a bd
       -0.016512169 -0.07837255 -0.031179626 -0.067597374
000300 ce 87 2a 3e ad 57 e3 3d 6e 94 84 3d 42 17 3f be
       0.16653368 0.11100707 0.06473623 -0.18661216
000310 19 e6 13 be 69 12 ae 3e 11 a6 fe bd 3c 8d 65 be
       -0.14443244 0.3399842 -0.124340184 -0.22417158
000320 8d b1 b4 3d 77 52 ea be 80 de c6 bd 69 e6 07 be
       0.088229276 -0.4576604 -0.09710407 -0.13271488
000330 8d 65 97 3d 32 df 4f 3d bc a3 99 3d 48 73 47 bd
       0.07392416 0.050749965 0.07501933 -0.048693925
000340 21 b2 5a be 12 2f 36 3b 4c 39 ca 3d ae 35 9f 3d
       -0.21357013 0.0027799052 0.0987421 0.077739105
000350 b1 6b 66 bb 14 c2 6b 3e 42 7c d1 3d 69 bf 51 be
       -0.0035159404 0.23023254 0.102287784 -0.20483173
000360 99 c2 b3 be 85 21 b6 3c 9a 1d da bc af b3 a4 ba
       -0.35109404 0.02223278 -0.026625443 -0.0012565757
000370 83 47 77 be bb ac 5a bd e0 bd 99 3d ba 1a 55 bd
       -0.24148373 -0.053387385 0.07506919 -0.05202744
000380 97 72 18 be f1 cb 91 bd 6a 3b 41 3e 14 10 00 3e
       -0.14887463 -0.07118977 0.18870321 0.12506133
000390 bb 1e f7 bd 6c 89 86 3a 59 c0 a3 bd a8 32 0b be
       -0.12066408 0.0010264344 -0.07995672 -0.13593543
0003a0 25 fb 08 bd 42 f7 3c be 26 1c 90 bd 6a 06 3d ba
       -0.033442635 -0.18453696 -0.07036619 -0.00072107336
0003b0 2b 4d ff bd a6 6a 2b be 00 c4 9b 3d 81 d2 1d bd
       -0.124658905 -0.16739902 0.076057434 -0.03853083
0003c0 2f 79 23 bd b8 93 6c be ac 15 80 be 5f 46 36 bd
       -0.03991049 -0.23103225 -0.25016534 -0.044500705
0003d0 da 29 46 be e9 53 01 be e2 b9 41 3d 2c 0e 33 bd
       -0.19351903 -0.12629665 0.047296412 -0.043714687
0003e0 b7 84 3b 3e da 8c e6 3d 59 e6 4e 3d 1d a3 17 bd
       0.18312345 0.11257334 0.050512645 -0.03702079
0003f0 4d 3c a4 3d 1a 8f cf 3d 41 1d a0 3d 4b f0 5f 3b
       0.08019314 0.10134716 0.0781808 0.0034170325

fc2.bias f4 [10]
000000 26 b9 54 3c f8 8e d6 bd 6f 7e 98 3d 03 c1 34 3d
       0.012983596 -0.10476488 0.0744599 0.044129383
000010 81 af 11 be 9b e5 21 3e 0d 96 2e 3e d6 be a0 3d
       -0.14227106 0.15810244 0.17049427 0.07848899
000020 c1 9b ce bd 2c ac 64 be
       -0.100883015 -0.22331303
