16-5.13 神经网络基础/model_20240520-173614.pth (torch, 409216 bytes, 4 tensors)

fc1.weight f4 [128, 784]
0	0x3e146dd9	0.14495029
1	0xbdb0ff58	-0.08642453
2	0xbdc9e5f8	-0.09858316
3	0x3d04464b	0.0322936
4	0x3e8cc4e9	0.2749398
5	0x3eac32e6	0.33632582
6	0x3df779ae	0.120837554
7	0xbcd348da	-0.025791574
8	0xbd8ecc0a	-0.06972511
9	0xbe44bcb9	-0.19212617
10	0xbf06cf8b	-0.52660435
11	0xbe3457ad	-0.1761157
12	0x3e91840e	0.28421062
13	0x3e88a894	0.26691115
14	0x3e839be5	0.25704876
15	0x3eaa9a20	0.33320713
16	0x3d20ad40	0.039227724
17	0xbefbe392	-0.4919706
18	0xbec4b980	-0.38422775
19	0xbe3f9f90	-0.18713212
20	0xbe11215e	-0.14172885
21	0x3da2ed8d	0.079554655
22	0x3e6ab6ca	0.22921291
23	0x3e78e80e	0.24307272
24	0x3e32b49a	0.17451707
25	0x3ce9094b	0.028446814
26	0xbd3e2b1e	-0.04642784
27	0xbd993afc	-0.074819535
28	0xbd3f850d	-0.046757746
29	0xbe08ed91	-0.13371874
30	0xbd7bdd3f	-0.061490294
31	0x3dfd8403	0.12378695
32	0x3ea323c0	0.31863213
33	0x3e86ee6c	0.26353776
34	0x3de6fdc9	0.112788744
35	0xbe085ec2	-0.13317397
36	0xbe8ee358	-0.27907825
37	0xbf013086	-0.50464666
38	0xbefc5958	-0.49286914
39	0xbe208473	-0.15675525
40	0x3df1446a	0.11780627
41	0x3d86f68d	0.065899946
42	0x3d992d45	0.074793376
43	0x3dea70c7	0.11447292
44	0xbdd18fdc	-0.10232517
45	0xbef3d2b0	-0.4762168
46	0xbf0fdd0a	-0.56196654
47	0xbec367a4	-0.3816501
48	0xbdfdf477	-0.124001436
49	0x3d314a0a	0.0432835
50	0x3e431e8f	0.19054626
51	0x3e338419	0.1753086
52	0x3e215876	0.15756401
53	0x3cebca13	0.02878288
54	0xbcb97c37	-0.022642238
55	0xbe494609	-0.19655623
56	0xbd219109	-0.039444957
57	0x3d7c8691	0.06165177
58	0x3d7d5755	0.061850864
59	0x3e1bee6d	0.15227671
60	0x3e54dada	0.2078661
61	0x3c07b310	0.008282438
62	0xbdc25bcf	-0.09490167
63	0xbe624e26	-0.22100124
64	0xbdc231f3	-0.09482183
65	0xbde4028d	-0.11133299
66	0x3cb14599	0.021639632
67	0x3cb53e68	0.022124484
68	0x3c4a672b	0.012353699
69	0x3e127cdc	0.14305443
70	0x3e10b87e	0.14132878
71	0x3cce658d	0.025194908
72	0xbcfe4edc	-0.031043462
73	0x3d0852e6	0.033282183
74	0xbd8234c2	-0.06357719
75	0xbd923eeb	-0.07140907
76	0xbe521f4c	-0.20519751
77	0xbe2e6e7e	-0.17034337
78	0x3c836aa3	0.01604206
79	0x3e12ab67	0.14323197
80	0x3e1db6ca	0.1540176
81	0x3d170402	0.036869057
82	0xbc94bf01	-0.018157484
83	0xbdd2f6df	-0.10300993
84	0x3e0dda86	0.13852891
85	0x3de5ffcb	0.11230429
86	0x3e16fd81	0.14745142
87	0x3e4cbd93	0.19994192
88	0xbca34ee1	-0.019935073
89	0xbdcdbc5a	-0.10045691
90	0x3d029a61	0.03188551
91	0x3e2cf19b	0.1688904
92	0x3e2ab23f	0.16669558
93	0x3c8e9488	0.01740481
94	0xbdd66c12	-0.104698315
95	0xbd540818	-0.05176553
96	0x3ce3acdb	0.027792385
97	0x3e02d1dd	0.12775369
98	0x3da395c0	0.07987547
99	0x3d7c714c	0.061631486
100	0xbb84e5bd	-0.0040557072
101	0xbd828b38	-0.0637421
102	0xbd9b9a41	-0.07597781
103	0x3dcb10a2	0.09915282
104	0x3e27141d	0.16316266
105	0x3d9505fd	0.07276533
106	0xbda6f3aa	-0.08151944
107	0x3d3417c8	0.043967992
108	0x3e12b9d5	0.14328702
109	0x3e11ae75	0.14226706
110	0xbd1f8772	-0.03894753
111	0x3d934406	0.07190709
112	0x3dbb5c67	0.09148484
113	0x3e15f416	0.14643893
114	0x3e69d9c8	0.22836983
115	0x3e5f7829	0.21823181
116	0xbd8ea3f7	-0.069648676
117	0x3c9930e3	0.018700069
118	0x3df49dfd	0.119441964
119	0x3d96b7ca	0.07359274
120	0xbc80a7d2	-0.015705023
121	0xbdf9718e	-0.12179862
122	0xbddb430d	-0.10706148
123	0xbd3b90ac	-0.045792267
124	0xbcbc978d	-0.023021484
125	0xbb793772	-0.0038027433
126	0x3b1f44f3	0.0024302572
127	0xbcad9504	-0.02118922
128	0xbbbb9974	-0.00572508
129	0xbd27de62	-0.040983565
130	0xbd95c3c4	-0.0731273
131	0xbd5d2123	-0.05398668
132	0x3c227a46	0.009916848
133	0x3e130c55	0.14360173
134	0x3cc03223	0.023461407
135	0xbdaeb95b	-0.085314475
136	0x3d0fc00e	0.035095267
137	0x3e294314	0.16529495
138	0x3e018fb3	0.12652473
139	0x3d009095	0.031387884
140	0xbd7be395	-0.061496336
141	0x3e778f67	0.24175797
142	0x3e374929	0.17899002
143	0x3d0c93f9	0.034320805
144	0x3c307963	0.010771128
145	0xbc643519	-0.013928675
146	0x3d08148a	0.033222713
147	0xbb52678f	-0.0032105183
148	0xbd136f26	-0.03599467
149	0xbd6aaf05	-0.057295818
150	0xbd9c7d19	-0.07641048
151	0xbd50a95e	-0.05094277
152	0xbd539128	-0.051652104
153	0xbda7dc18	-0.081962764
154	0xbc783914	-0.015150327
155	0xbde38294	-0.1110889
156	0xbd9d4f30	-0.076811194
157	0xbde0d8ab	-0.10978826
158	0xbdc1716f	-0.09445464
159	0xbd4d6390	-0.05014378
160	0x3c8f9908	0.017529026
161	0x3d126a95	0.035746176
162	0x3d17fb18	0.037104696
163	0xbc83a183	-0.016068226
164	0xbc5147e6	-0.01277349
165	0x3e1d87fa	0.15383902
166	0x3e028588	0.1274625
167	0xbdcffe8f	-0.10155975
168	0x3d590b3c	0.05298923
169	0x3e2ac694	0.16677314
170	0x3d9aff0d	0.07568178
171	0x3e1c134b	0.15241735
172	0x3d48ec74	0.049053624
173	0xbd5b7704	-0.0535803
174	0xbca3b659	-0.019984411
175	0xbbf78e20	-0.0075547844
176	0xbb9a5f53	-0.0047110706
177	0xbcdf5725	-0.027263233
178	0xbd42d35b	-0.047564846
179	0xbd55aae9	-0.052164946
180	0xbd34e026	-0.044159077
181	0xbc981fdf	-0.018569885
182	0xbd207908	-0.039177924
183	0xbd98c568	-0.07459527
184	0xbc9d737a	-0.019220103
185	0xbd9483fc	-0.072517365
186	0xbd6e73a6	-0.05821576
187	0xbcb1c410	-0.021699935
188	0x3a5ebcfc	0.0008496789
189	0x3ce647c2	0.028110389
190	0xbd22930f	-0.039691027
191	0x3c64b6c9	0.013959595
192	0x3de82c0e	0.11336528
193	0x3d9758b8	0.07389969
194	0xbd5f4c85	-0.054516334
195	0xbcfb7fcc	-0.030700587
196	0xbbc860e8	-0.0061150678
197	0x3c54dad6	0.012991628
198	0x3d637d1e	0.055539243
199	0x3e1f3701	0.15548326
200	0x3d402a26	0.046915196
201	0xbd18d4c6	-0.03731229
202	0xbc8fbe6b	-0.017546853
203	0x3be0c80c	0.006859785
204	0xbca51f87	-0.020156635
205	0xbd6fd7c5	-0.058555383
206	0xbcd23de9	-0.025664287
207	0xbc87a6c5	-0.016559014
208	0xbd246e0a	-0.040144004
209	0xbb181eb4	-0.002321166
210	0x3c108675	0.00882112
211	0x3c3a59c7	0.011373944
212	0xbd102149	-0.035187993
213	0xbd6fa7cb	-0.05850963
214	0xbd61a9fd	-0.055093754
215	0xbcb760a8	-0.022384956
216	0x3c311e27	0.010810412
217	0x3cea833c	0.02862703
218	0xbd36e485	-0.044651527
219	0xbb6adbc8	-0.0035836566
220	0x3db9896f	0.090594165
221	0xbc892f01	-0.016746046
222	0x3c08b364	0.008343551
223	0x3c856792	0.016284738
224	0x3bb836b6	0.0056217564
225	0x3d677a94	0.056513384
226	0x3e0d4da7	0.13799153
227	0x3e15a974	0.14615422
228	0x3d0cb9a5	0.034356732
229	0x3c0aff19	0.008483672
230	0xbb48a455	-0.0030615528
231	0x3d5386cf	0.051642235
232	0x3b35f79f	0.0027766002
233	0x3bf7cd6d	0.0075623305
234	0xbcc03de5	-0.023467014
235	0xbbd3a897	-0.0064593065
236	0x3c869e90	0.01643303
237	0x3c7a8c9c	0.015292313
238	0xbbd51df2	-0.006503814
239	0xbd1b9d01	-0.037991527
240	0xbcba5f6d	-0.02275058
241	0xbd7976be	-0.060904257
242	0xbd9f825d	-0.07788537
243	0xbb78df25	-0.0037974801
244	0x3d7102ee	0.058840685
245	0x3d9c6f0c	0.07638368
246	0x3d419298	0.047258943
247	0xba9c8b7f	-0.0011943429
248	0x3c8014c6	0.015634906
249	0x3d35581b	0.044273477
250	0x3e09ee37	0.13469778
251	0x3da6cb52	0.08144249
252	0x3e1744c4	0.14772326
253	0x3def589b	0.11686822
254	0x3e023fee	0.127197
255	0x3def8051	0.11694396

fc1.bias f4 [128]
0	0x3ea89016	0.3292243
1	0xbe135c41	-0.14390661
2	0x3e3a034d	0.18165322
3	0x3ec6355a	0.3871258
4	0xbda40c35	-0.08010141
5	0x3eaea78d	0.34112206
6	0xbebf20ef	-0.37329814
7	0x3ebfaeb5	0.37437978
8	0xbe2762ae	-0.16346237
9	0x3db1abe4	0.08675364
10	0x3dfa0540	0.122080326
11	0xbe5dedb3	-0.21672706
12	0x3efb4b5b	0.4908093
13	0x3c253489	0.010083326
14	0xbe30e5c1	-0.17275144
15	0x3e5baac9	0.21451868
16	0x3df063ce	0.11737786
17	0x3e3a2b56	0.18180594
18	0x3c78f554	0.0151952095
19	0x3e1930e9	0.14960064
20	0x3e745536	0.2386063
21	0x3eeb3838	0.4594133
22	0xbc4654d6	-0.012105187
23	0x3e689a79	0.22715177
24	0x3dfc134c	0.12308368
25	0x3e99c27f	0.300312
26	0x3e6b5759	0.22982539
27	0xbdc98039	-0.0983891
28	0x3d8bd95f	0.068285696
29	0x3d38789e	0.045036905
30	0x3ecdb0da	0.4017399
31	0x3cbfcebc	0.023414008
32	0xbc95b4ab	-0.018274626
33	0xbb64dd92	-0.0034922105
34	0x3de50029	0.11181671
35	0xbdff891e	-0.12477325
36	0x3e704653	0.23464327
37	0xbe88e1e8	-0.26734853
38	0xbd6433d5	-0.055713493
39	0x3ee87a1c	0.45405662
40	0x3e14f2f7	0.14545809
41	0x3e70141a	0.23445168
42	0x3dd009ac	0.10158095
43	0xbc232048	-0.009956427
44	0x3eb4c646	0.3530752
45	0x3e9ed69c	0.3102311
46	0x3d7d1031	0.06178302
47	0x3e8feb54	0.2810923
48	0x3c518da8	0.012790121
49	0x3dc482db	0.09595271
50	0xbe0ff4a5	-0.14058168
51	0xbd4c1501	-0.04982472
52	0x3e50989b	0.20370714
53	0x3eb3159a	0.34977418
54	0x3ecf3061	0.40466598
55	0x3e975d04	0.29563153
56	0x3b92b47f	0.004477083
57	0xbc2d4b4a	-0.010577032
58	0x3c6c1d86	0.014411336
59	0x3e58e10c	0.21179599
60	0x3c05595d	0.008138982
61	0xbd27fe16	-0.0410138
62	0x3c3c0ee1	0.011478157
63	0xbc300a49	-0.01074464
64	0xbea8312d	-0.32850018
65	0x3e86a9a1	0.26301292
66	0xbd9b3ef9	-0.075803705
67	0x3ddb47a7	0.10707026
68	0xbd8c545a	-0.06852026
69	0xbc383394	-0.011242766
70	0xbe342041	-0.17590429
71	0x3ea4bd75	0.32175794
72	0x3cd22d43	0.025656348
73	0x3ec6eabf	0.38850972
74	0x3e3cde84	0.18444258
75	0x3e208769	0.15676655
76	0xbc2cbabb	-0.010542567
77	0x3ccd2330	0.025041193
78	0x3e17cc6d	0.14824076
79	0x3e56d198	0.20978391
80	0x3e9e009d	0.30859843
81	0x3e034268	0.128183
82	0x3ddd8283	0.10815909
83	0xbd206f2b	-0.039168518
84	0xbe2abb94	-0.16673118
85	0xbe4747b1	-0.19460942
86	0xbdf2cc5d	-0.118553855
87	0x3e562f16	0.209164
88	0x3f106387	0.56401867
89	0x3e2eb9e9	0.17063107
90	0x3e60db65	0.21958692
91	0x3e38420f	0.1799395
92	0x3e857cce	0.2607178
93	0xbda7bd68	-0.08190423
94	0xbec80c39	-0.39071825
95	0x3cb4b9da	0.022061277
96	0xbe2bf96f	-0.1679437
97	0xbd0c7aef	-0.034296926
98	0x3e78990c	0.24277133
99	0xbe6ae918	-0.2294048
100	0x3e0a6803	0.1351624
101	0x3cada247	0.021195544
102	0x3e23e893	0.16006689
103	0x3ea3bc9c	0.31979835
104	0x3d6fc64a	0.058538713
105	0x3d235129	0.039872322
106	0xbbc70d77	-0.006074603
107	0x3c0c8d25	0.008578573
108	0x3e3b1118	0.1826824
109	0x3e62440b	0.22096269
110	0xbd62b18b	-0.0553451
111	0x3bb7ac7e	0.0056052795
112	0xbe392326	-0.18079814
113	0xbdd1fdb4	-0.10253468
114	0x3ebdecfd	0.3709487
115	0x3df28076	0.11840908
116	0xbdaf65cd	-0.08564339
117	0xbe090261	-0.13379814
118	0x3dda3ce3	0.106561445
119	0x3eb62368	0.35573888
120	0xbe61be54	-0.2204526
121	0xbdd650eb	-0.10464653
122	0x3ba8875e	0.00514309
123	0x3de5fdfb	0.112300836
124	0x3e22aad4	0.15885478
125	0xbd410f1e	-0.047133557
126	0xbd66bd80	-0.056333065
127	0xbe7b198d	-0.24521466

fc2.weight f4 [10, 128]
0	0xbd8a4172	-0.06750764
1	0x3dabd77a	0.08390708
2	0x3dc3062f	0.09522664
3	0x3d480641	0.04883409
4	0x3c3ad2bb	0.011402781
5	0x3e0d752b	0.13814227
6	0xbd2a392f	-0.04155844
7	0x3dc32378	0.095282495
8	0xbe0e91c9	-0.139228
9	0xbea8570f	-0.3287892
10	0xbd74505d	-0.059646953
11	0xbe2728ca	-0.16324154
12	0x3da3a770	0.079909205
13	0x3ced5622	0.028971735
14	0xbd8c1dcc	-0.06841621
15	0xbe058eff	-0.1304283
16	0xbe0d068e	-0.13772032
17	0x3dbcec8f	0.092248075
18	0x3d59d20b	0.05317883
19	0x3e096ef7	0.13421236
20	0x3e5bcfc0	0.21465969
21	0xbde80893	-0.113297604
22	0xbda552e8	-0.08072454
23	0xbd6c0b45	-0.057627935
24	0x3da1b41f	0.078956835
25	0xbe760ecf	-0.24029087
26	0x3b77fc7a	0.0037839697
27	0xbc616805	-0.01375771
28	0xbe544e0e	-0.207329
29	0xbcec9e40	-0.028884053
30	0xbed28151	-0.41114286
31	0xbd80c3c8	-0.06287342
32	0x3d974b94	0.07387462
33	0xbe0f4a39	-0.13993157
34	0xbe098629	-0.13430084
35	0xbdc20c53	-0.09475007
36	0x3d9c2f6c	0.076262325
37	0x3dbd9083	0.09256079
38	0x3d968017	0.0734865
39	0xbecdf798	-0.40227962
40	0xbe44de2b	-0.19225375
41	0x3c9d5a9c	0.019208245
42	0x3d8cbbb7	0.06871741
43	0xbe8dfffc	-0.27734363
44	0xbc5cbc66	-0.013472652
45	0x3dc19870	0.09452903
46	0xbc091054	-0.008365709
47	0x3dcb84ee	0.09937464
48	0xbe401e3f	-0.18761538
49	0x3e3d005b	0.18457167
50	0xbe4feb0f	-0.20304511
51	0xbd7dc68c	-0.061956927
52	0xbe5f55cf	-0.21810077
53	0x3db440c1	0.08801413
54	0x3ccda14b	0.025101325
55	0x3da073c5	0.07834581
56	0x3d86b3cf	0.065772645
57	0x3d824b0c	0.0636197
58	0x3b0d1bd5	0.0021531482
59	0xbdeb7413	-0.11496749
60	0xbd974366	-0.07385902
61	0x3d441c23	0.047878396
62	0xbd895104	-0.06704906
63	0xbd3ce09b	-0.046112638
64	0xbd3f4d4b	-0.04670457
65	0x3c63620b	0.013878356
66	0xbd7a1ccd	-0.061062623
67	0x3daf8cc4	0.08571771
68	0xbdf4da6d	-0.11955724
69	0xbe5eb3d9	-0.21748294
70	0x3d29b01c	0.041427717
71	0x3de85efe	0.11346243
72	0xbe532b03	-0.20621876
73	0xbde1339f	-0.10996174
74	0x3c6800ac	0.014160316
75	0xbde9ddcd	-0.11419258
76	0xbd0842a0	-0.033266664
77	0xbd955586	-0.07291703
78	0xbd45ce50	-0.048292458
79	0x3de88e5a	0.113552764
80	0xbd9d8373	-0.076910876
81	0xbcd6a6e9	-0.026202636
82	0x3db78975	0.08961765
83	0x3c3145fc	0.010819908
84	0x3d1d7dbd	0.03844999
85	0xbddfc204	-0.109256774
86	0x3c850e2e	0.016242113
87	0x3dedf347	0.11618667
88	0xbe1de2fa	-0.15418616
89	0xbce510d5	-0.027962128
90	0x3d025ba8	0.03182569
91	0x3dd9f2e4	0.10642031
92	0x3c89c19e	0.016815957
93	0x3dc25f01	0.09490777
94	0x3b758c35	0.0037467603
95	0xbcf567af	-0.029956667
96	0xbda17ade	-0.07884763
97	0x3d623788	0.05522874
98	0xbcfdbb76	-0.030973177
99	0x3d873740	0.06602335
100	0xbdbb7e4f	-0.09154951
101	0xbd6794c8	-0.056538373
102	0xbe3d03e2	-0.18458512
103	0x3d06a0c9	0.03286818
104	0x3e718ea9	0.23589577
105	0xbd9a88f3	-0.07545652
106	0x3b8c7f1a	0.0042876126
107	0xbd97242f	-0.07379948
108	0xbd5728c5	-0.052529115
109	0x3d872f74	0.06600848
110	0xbd313266	-0.043260954
111	0x3c1b6391	0.009484188
112	0x3d4b798f	0.049676474
113	0xbe106d55	-0.14104207
114	0x3de2e356	0.11078517
115	0x3d036708	0.03208068
116	0xbe2c99ab	-0.16855495
117	0xbc7a30c7	-0.0152704185
118	0x3d947629	0.072491
119	0xbedd527d	-0.43226996
120	0x3c66c10e	0.014084114
121	0x3d662dca	0.05619601
122	0x3da0fd08	0.07860762
123	0xbe2b2ef3	-0.16717128
124	0x3d993905	0.07481579
125	0x3c2940fa	0.010330433
126	0xbe8b529e	-0.2721147
127	0xbd8bc437	-0.068245344
128	0xbdf3febc	-0.11913821
129	0x3d1825ab	0.037145298
130	0x3d3e026f	0.04638904
131	0xbe991aec	-0.29903352
132	0xbe1cadbb	-0.15300648
133	0xbe6bccbc	-0.23027319
134	0x3d7c4334	0.061587527
135	0xbe6510b0	-0.22369647
136	0xbd427051	-0.047470395
137	0xbd5b2c93	-0.053509306
138	0xbe406576	-0.18788704
139	0x3d31e89d	0.043434728
140	0xbe8af020	-0.27136326
141	0x3e1644ed	0.1467473
142	0xbe4cbb94	-0.1999343
143	0xbcf8bddc	-0.03036397
144	0xbe76d2c5	-0.2410384
145	0x3debaed4	0.11507955
146	0x3da51d12	0.08062185
147	0xbce4195b	-0.027844122
148	0xbe25a688	-0.16176808
149	0xbedbf09a	-0.42957002
150	0xbe3f05b1	-0.18654515
151	0x3d98ed35	0.07467119
152	0x3cc1906c	0.023628436
153	0xbeafb8c0	-0.3432064
154	0x3e12ad18	0.14323843
155	0xbd1f3a6d	-0.03887408
156	0x3e581744	0.21102625
157	0xbe69d5a2	-0.228354
158	0xbef0227e	-0.46901315
159	0x3cc696f7	0.024241908
160	0xbe827578	-0.25480247
161	0xbdbc75e8	-0.09202176
162	0x3d70724a	0.058702745
163	0x3dcfa3fd	0.101387
164	0xbbeb8df2	-0.007188552
165	0xbd5b4052	-0.053528138
166	0xbd6bfb27	-0.057612564
167	0xbf403a55	-0.7508901
168	0xbebf3531	-0.3734527
169	0x3db7f609	0.08982474
170	0xbe251bf9	-0.16123952
171	0xbdbd60c0	-0.09246969
172	0xbe1859cc	-0.14878005
173	0xbe169e01	-0.14708711
174	0x3e57d105	0.21075828
175	0x3dd96d80	0.106165886
176	0xbe3462b5	-0.17615779
177	0x3e533eca	0.20629421
178	0x3e432861	0.19058372
179	0x3e4d5eaf	0.2005565
180	0x3dad6d47	0.084681086
181	0xbdc1bfa6	-0.09460382
182	0xbe7ac5e9	-0.24489559
183	0x3db0366c	0.0860413
184	0xbdbb3e6a	-0.09142764
185	0x3c9df567	0.019282056
186	0x3d7a063f	0.061041113
187	0x3e98c73c	0.29839504
188	0xbc874487	-0.016512169
189	0xbda081ca	-0.07837255
190	0xbcff6c6a	-0.031179626
191	0xbd8a707e	-0.067597374
192	0x3e329f01	0.17443468
193	0x3e1d190b	0.15341584
194	0x3d98c66a	0.074597195
195	0xbe574bcd	-0.2102501
196	0xbe238e21	-0.15972187
197	0x3ed56279	0.4167669
198	0xbe4739ea	-0.19455686
199	0xbea05331	-0.3131347
200	0x3d0e2176	0.03469988
201	0xbf2f476b	-0.6846835
202	0xbe07d9f8	-0.13266742
203	0xbe28c520	-0.16481447
204	0x3d97658d	0.07392416
205	0x3d4fdf32	0.050749965
206	0x3daa43d8	0.083137214
207	0xbc8c4241	-0.017121436
208	0xbe7255a2	-0.23665479
209	0xba7a019f	-0.0009536985
210	0x3de42cce	0.11141358
211	0x3d97d14b	0.07412966
212	0x3cbb9872	0.02289984
213	0x3e91f854	0.28509772
214	0x3de7a942	0.1131158
215	0xbe6530d0	-0.22381902
216	0xbed784f0	-0.4209361
217	0x3c597ee7	0.013274885
218	0x3c4dec57	0.012568555
219	0xbbf2a221	-0.007404581
220	0xbeb48e81	-0.35264972
221	0xbd851d3d	-0.064997174
222	0x3da332f3	0.07968702
223	0xbd551aba	-0.05202744
224	0xbe0728ae	-0.13199112
225	0xbd91cbf1	-0.07118977
226	0x3e81bf1d	0.2534112
227	0x3e020e38	0.12700737
228	0xbe2d7e39	-0.16942681
229	0x3a86896c	0.0010264344
230	0xbe06ab4e	-0.13151285
231	0xbe2a513c	-0.16632551
232	0xbc17e82a	-0.009271661
233	0xbe622adb	-0.2208666
234	0xbd901c26	-0.07036619
235	0xba3d066a	-0.00072107336
236	0xbe751fab	-0.23937862
237	0xbe50df0d	-0.20397587
238	0x3dc512d6	0.09622733
239	0xbcf883ae	-0.030336227
240	0xbd6b20c0	-0.05740428
241	0xbe7c2925	-0.2462507
242	0xbea488bd	-0.32135573
243	0xbd8b5845	-0.068039455
244	0xbe886a45	-0.26643577
245	0xbe34d8eb	-0.17660873
246	0x3d27e676	0.04099127
247	0xbdbf17f8	-0.093307436
248	0x3e62e8d4	0.2215913
249	0x3decb571	0.11558045
250	0x3d3c3bb7	0.045955386
251	0xbd3948a8	-0.045235306
252	0x3e18d198	0.14923704
253	0x3ddbb16e	0.107272014
254	0x3ddf1dbf	0.108943455
255	0xbc92aa5a	-0.017903496

fc2.bias f4 [10]
0	0x3cf0fedc	0.029418401
1	0xbe3d48a6	-0.18484744
2	0x3dd723f9	0.10504908
3	0x3ded10ea	0.11575492
4	0xbe5616b8	-0.20907104
5	0x3e22f81b	0.15914957
6	0x3e366a89	0.17814077
7	0x3e111e47	0.14171706
8	0xbe0ecc54	-0.13945132
9	0xbe9583bb	-0.29202065
